best_model.pth (torch, 67535 bytes, 7 tensors)

shared.0.weight f4 [128, 60]
0	0x3dd21d2e	0.10259472
1	0x3ddcfb92	0.10790171
2	0xbcf4db97	-0.029889865
3	0x3df4febd	0.1196265
4	0x3b50e3f4	0.0031874152
5	0xbb8586ae	-0.004074893
6	0x3ec2860c	0.37992895
7	0x3f04c03f	0.51855844
8	0x3ee3f301	0.44521335
9	0x3c3bf263	0.011471364
10	0x3de83289	0.11337764
11	0x3cd1a260	0.025590122
12	0x3dcc95d4	0.09989515
13	0x3cd58445	0.026064048
14	0x3e06eb0a	0.13175598
15	0x3c85e3e3	0.016344016
16	0x3ede23bb	0.43386635
17	0x3eb4f325	0.35341755
18	0x3de2a01e	0.11065696
19	0x3d375c49	0.044765744
20	0xbd6d1911	-0.057885233
21	0xbc725c38	-0.0147924945
22	0xbd555e68	-0.052091986
23	0x3db4d413	0.088295124
24	0xbd905b9b	-0.07048722
25	0xbdbf273e	-0.09333657
26	0x3e99d3fd	0.30044547
27	0x3e84b49f	0.25919053
28	0x3e9cf59e	0.3065614
29	0xbdeb3f9b	-0.11486741
30	0x3defd28a	0.11710079
31	0xbde044a0	-0.10950589
32	0x3dcc7b99	0.09984512
33	0x3cb92fcf	0.022605805
34	0xbbb45568	-0.0055033453
35	0x3ddbb554	0.10727945
36	0x3ecae0e2	0.39624697
37	0x3ef5f7fa	0.48040754
38	0x3e4a407c	0.19751161
39	0x3c99133c	0.01868593
40	0x3d266282	0.040621288
41	0xbd016d76	-0.03159853
42	0x3d81bf5c	0.06335327
43	0x3e0b462d	0.13600989
44	0x3e2bf734	0.1679352
45	0xbdac7c51	-0.08422149
46	0x3ed247a8	0.41070294
47	0x3eb7edd8	0.35923648
48	0x3e9b87e0	0.30377102
49	0xbe0951ab	-0.1341006
50	0xbdf85e7b	-0.12127396
51	0xbd3cadff	-0.046064373
52	0xbdb7ff33	-0.08984222
53	0x3e0ec282	0.13941386
54	0x3daba336	0.083807394
55	0x3d5fda96	0.05465182
56	0x3ec8303f	0.3909931
57	0x3eb21fa3	0.34789762
58	0x3e802719	0.2502983
59	0x3d2dc3f3	0.0424232
60	0x3bf00c20	0.007325664
61	0xbdb4edb2	-0.08834399
62	0x3d2297ba	0.03969548
63	0xbd37141f	-0.044696923
64	0x3cf807f1	0.030277224
65	0xbcc8e97f	-0.024525402
66	0xbe03f2b6	-0.12885556
67	0xbe9ff965	-0.3124496
68	0xbe4c65f7	-0.19960772
69	0xbe89503f	-0.26819035
70	0x3ded53f6	0.1158828
71	0x3d2f4358	0.042788833
72	0x3dfcf719	0.12351818
73	0xbddbf4b7	-0.10740035
74	0xbe0c51c6	-0.13703069
75	0xbddd2b71	-0.107993014
76	0xbe7cec29	-0.24699463
77	0xbddce747	-0.107863
78	0x3cc2ddd4	0.023787417
79	0x3df66f5a	0.120329574
80	0xbd889dd5	-0.06670729
81	0xbdb440a3	-0.08801391
82	0x3d8c46ab	0.06849416
83	0xbd55c74f	-0.05219203
84	0x3d85f735	0.065412916
85	0xbcc4ca15	-0.024022141
86	0xbdb0ae38	-0.086269796
87	0xbe8556fc	-0.26042926
88	0x3d6f8f04	0.058486
89	0x3d40ba28	0.047052532
90	0x3cdf55b7	0.027262552
91	0xbd06dba3	-0.032924306
92	0x3d9d9570	0.076945186
93	0x3db3a92b	0.087725006
94	0xbdd8c420	-0.10584283
95	0xbd9f42e4	-0.0777643
96	0xbdb62407	-0.088935904
97	0xbe805d59	-0.2507122
98	0xbd941bfa	-0.072318986
99	0xbea67249	-0.32509068
100	0xbd986ad6	-0.07442252
101	0x3d02c6a2	0.031927712
102	0xbc931cd5	-0.017958084
103	0xbdc2fe0e	-0.09521113
104	0xbc2e238e	-0.010628594
105	0xbd9f2747	-0.077711634
106	0xbe8f3222	-0.27967936
107	0xbe7707ff	-0.24124144
108	0xbe3683ea	-0.17823759
109	0xbd2d34d0	-0.042286694
110	0x3e039836	0.12851033
111	0x3cc6b9dc	0.024258547
112	0x3d2205ba	0.039556243
113	0xbdf7fddb	-0.12108966
114	0xbdbf5334	-0.093420416
115	0xbd38dc4d	-0.04513197
116	0xbe1ce548	-0.15321839
117	0xbe92f234	-0.2870041
118	0xbd157242	-0.036485918
119	0xbdd19ed0	-0.10235369
120	0x39d390df	0.00040352994
121	0xbd3d8490	-0.046269
122	0xbc04a3b9	-0.008095675
123	0xbdaad845	-0.083420314
124	0xbd4063dc	-0.046970233
125	0xbdb9c4cb	-0.090707384
126	0x3ef12ffc	0.47106922
127	0x3ed3a48f	0.41336486
128	0x3ed27598	0.41105342
129	0x3c0ed9c8	0.008718915
130	0x3de41884	0.111374885
131	0x3d2fbc82	0.042904384
132	0xbdc7d845	-0.09758047
133	0x3de924fe	0.11384009
134	0x3dc08cc7	0.09401851
135	0x3b0b27d7	0.0021233463
136	0x3e90be15	0.2827002
137	0x3e85e65a	0.26152307
138	0x3ea60db0	0.32432318
139	0x3cf51b10	0.029920131
140	0x3d3289c6	0.043588422
141	0xbdda989e	-0.10673641
142	0x3dc52365	0.096258916
143	0xbdb70136	-0.08935778
144	0x3cde7d47	0.027159346
145	0xbc76e0b1	-0.015068219
146	0x3ee26d31	0.4422393
147	0x3ef5aba2	0.47982508
148	0x3ec00c88	0.3750956
149	0xbace1ba9	-0.0015724796
150	0x3cb7f7f6	0.022457104
151	0xbd64c6d1	-0.05585367
152	0xbc63218c	-0.013862979
153	0xbdbd806f	-0.092530124
154	0x3e2dc229	0.16968597
155	0xbd246e44	-0.04014422
156	0x3f052327	0.52006763
157	0x3efe2f62	0.49645525
158	0x3e9b3f4d	0.30321732
159	0xbc6bd0da	-0.014393056
160	0x3e07f068	0.13275301
161	0x3d180ec8	0.03712347
162	0x3d1e0a92	0.0385843
163	0xbd83bf30	-0.064329505
164	0x3e55307e	0.2081928
165	0xbd651ec1	-0.055937532
166	0x3ea3c733	0.31987914
167	0x3efad39b	0.48989567
168	0x3ed4ba70	0.4154849
169	0xbd6e07dd	-0.058112968
170	0xbd4826dd	-0.048865188
171	0x3b583374	0.0032989653
172	0x3dc05e96	0.09393041
173	0x3d1a1a30	0.03762263
174	0x3c75f05f	0.015010922
175	0xbbf8c097	-0.007591318
176	0x3eafb1a6	0.34315223
177	0x3ef8a2b1	0.48561624
178	0x3edc3313	0.43007717
179	0xbbbad667	-0.0057018283
180	0x3d068844	0.032844797
181	0x3d8a8414	0.06763473
182	0x3cc1e6be	0.023669597
183	0xbd368648	-0.044561654
184	0x3dbb1121	0.091341265
185	0x3dd1bb01	0.10240746
186	0x3f100df3	0.56271285
187	0x3efbc731	0.49175408
188	0x3df617c5	0.120162524
189	0x3d1a607d	0.037689675
190	0xbcbbed3c	-0.02294027
191	0xbd17271c	-0.036902532
192	0x3db829f2	0.089923754
193	0x3e021bfa	0.12705985
194	0x3dbc7d72	0.09203614
195	0xbc24d942	-0.010061564
196	0x3ed0ac09	0.40756252
197	0x3ecbc383	0.397976
198	0x3e4bec67	0.19914399
199	0x3d78a27a	0.060701825
200	0xbdf6f0ea	-0.120576695
201	0xbd452f32	-0.048140712
202	0x3ddeb8d2	0.108750954
203	0x3d589e87	0.05288556
204	0x3cee9e7a	0.029128302
205	0xbdf4fc63	-0.119622014
206	0x3ea599af	0.32343814
207	0x3e92d6ab	0.28679404
208	0xbdf75192	-0.12076105
209	0x3dcb6ceb	0.09932884
210	0x3d9d77fa	0.07688899
211	0x3d734d5e	0.059399955
212	0xbde9a18a	-0.11407764
213	0xbd9aaa41	-0.075520046
214	0x3c60419b	0.013687517
215	0x3e2057f7	0.15658556
216	0x3efb98fb	0.49140152
217	0x3ee0ec9f	0.43930528
218	0x3d13c294	0.036074236
219	0x3b2b3d1b	0.002612895
220	0xbd9b02ff	-0.07568931
221	0x3dcb092e	0.0991386
222	0xbd3855be	-0.045003645
223	0x3be29226	0.006914395
224	0x394869ee	0.00019112948
225	0x3d86d74f	0.065840356
226	0x3ef3e740	0.47637367
227	0x3ed9e9ca	0.4256118
228	0xbc327b8e	-0.010893716
229	0xbdfdee33	-0.123989485
230	0xbdbead33	-0.09310379
231	0x3dd0dcd7	0.10198372
232	0x3d9adb98	0.075614154
233	0x3e2356df	0.15951107
234	0x3e05ceaf	0.13067125
235	0xbc7774db	-0.015103544
236	0x3ee411c6	0.4454481
237	0x3eb271fa	0.34852582
238	0xbe2369f4	-0.15958387
239	0xbd62fde9	-0.05541793
240	0x3d63e516	0.055638395
241	0xbd8092ba	-0.06277986
242	0xbcd1cea9	-0.025611239
243	0xbd95d8cf	-0.073167436
244	0xbb62d99d	-0.003461457
245	0xbd4e5c99	-0.050381277
246	0x3ec38325	0.38185993
247	0x3f025008	0.5090337
248	0x3ce9e55d	0.028551752
249	0x3da494e1	0.08036209
250	0xbd23c047	-0.03997829
251	0xbdc0073c	-0.0937638
252	0xbca0e4cb	-0.019640347
253	0xbd63fd0f	-0.055661257
254	0x3cc167a8	0.023608997
255	0xbe0acf36	-0.13555607

shared.0.bias f4 [128]
0	0x3f3bdadc	0.7338083
1	0xbf00f9d2	-0.50381196
2	0x3f3bbb3c	0.7333257
3	0x3f465050	0.774663
4	0x3f3a8a90	0.7286768
5	0x3e738f9a	0.23785248
6	0x3f3b918e	0.73268974
7	0x3f2ce355	0.6753438
8	0xbec11db5	-0.37717977
9	0xbf02c104	-0.5107577
10	0xbe664b6c	-0.22489709
11	0x3f3514a2	0.7073461
12	0xbdd3e1d3	-0.10345807
13	0xbf22bdfe	-0.63571155
14	0xbd2b1884	-0.041771427
15	0x3f4a891c	0.7911546
16	0x3f2ebfde	0.68261516
17	0x3f2becd6	0.6715826
18	0x3ddf3dd5	0.109004654
19	0x3e1cd39f	0.15315102
20	0x3f291d84	0.6606066
21	0xbe26f17c	-0.16303056
22	0x3f31c6d5	0.6944402
23	0xbe7313f4	-0.2373808
24	0x3ee9e011	0.45678762
25	0x3f27e601	0.65585333
26	0xbec5c4f1	-0.38626817
27	0x3f34641f	0.7046527
28	0x3eeb8245	0.45997825
29	0x3f1ba8c8	0.60804415
30	0x3f023aee	0.5087117
31	0x3f318f64	0.6935942
32	0x3f3115fe	0.6917418
33	0x3f0601c2	0.5234643
34	0xbe7ee907	-0.2489358
35	0xbf092137	-0.53566307
36	0x3f107161	0.56423
37	0x3f39e2b1	0.7261153
38	0x3ef5de67	0.48021242
39	0x3f487c6e	0.78314865
40	0x3f27cfe9	0.6555162
41	0x3f533cbc	0.8251455
42	0xbeec1a04	-0.46113598
43	0x3f33dd0f	0.70259184
44	0x3f36ec97	0.7145476
45	0xbdd17226	-0.1022685
46	0x3f27d085	0.6555255
47	0xbe855859	-0.26043966
48	0x3e96ffbc	0.29491985
49	0xbeb028bd	-0.3440608
50	0x3f59696b	0.8492648
51	0x3eff1206	0.49818438
52	0xbeca985f	-0.39569375
53	0xbec5ae21	-0.38609412
54	0xbeb920d4	-0.36157858
55	0xbeaf65b7	-0.3425729
56	0x3f1cb55f	0.6121425
57	0xbedabd8b	-0.42722735
58	0x3e1f0bff	0.1553192
59	0xbd5b71d0	-0.053575337
60	0xbdc61211	-0.09671415
61	0x3f4dcc2c	0.80389667
62	0x3f223b60	0.6337185
63	0x3ea0b155	0.31385294
64	0x3f3386cf	0.70127577
65	0x3f273b3b	0.65324754
66	0x3f505cd5	0.8139165
67	0xbeadddb5	-0.33958212
68	0x3f38c3ac	0.7217357
69	0xbf110689	-0.56650597
70	0x3f18f414	0.59747434
71	0xbe05813a	-0.13037577
72	0x3ed0944a	0.40738136
73	0x3eefd3bc	0.46841228
74	0xbf1d29d5	-0.61391956
75	0xbdd9487f	-0.10609531
76	0x3f47b525	0.7801078
77	0xbf0da208	-0.55325365
78	0xbeb2d70f	-0.34929702
79	0x3f0cc6b5	0.549907
80	0x3f16abd6	0.5885595
81	0x3f3a77a4	0.7283881
82	0x3f2cb637	0.6746554
83	0xbe7a1d8b	-0.24425332
84	0x3f28ccc4	0.6593745
85	0x3e89a7f1	0.26885942
86	0x3f34ff92	0.7070247
87	0x3f29c603	0.66317767
88	0xbe94b41f	-0.2904367
89	0x3d8e3190	0.06943047
90	0x3e913c17	0.28366157
91	0xbeca63e1	-0.39529327
92	0xbea06fe5	-0.3133537
93	0x3e766ba3	0.24064498
94	0x3f318f88	0.69359636
95	0x3f044ced	0.5167988
96	0x3f15ce3a	0.585178
97	0xbe2d9fe2	-0.16955522
98	0x3f15fa9d	0.5858553
99	0xbeb4a256	-0.35280102
100	0x3f1cea29	0.612948
101	0x3f46ce31	0.77658373
102	0xbe80d1f5	-0.25160185
103	0x3f095a7f	0.5365371
104	0x3f3d103b	0.7385289
105	0x3f1ceaeb	0.61295956
106	0xbf0021fc	-0.50051856
107	0x3f3a3621	0.72738844
108	0xbec3f584	-0.3827325
109	0x3f5a1c4a	0.85199416
110	0x3ece23c9	0.40261677
111	0x3f3dccac	0.7414043
112	0x3f38e4bf	0.7222404
113	0x3e9b1a8e	0.30293697
114	0x3e2e3be0	0.17015028
115	0x3ee4c68f	0.44682738
116	0x3e9b43a7	0.30325052
117	0x3f4a1886	0.7894367
118	0xbea3ddb4	-0.32005084
119	0x3e43b92a	0.19113603
120	0x3e89d174	0.26917613
121	0x3eca5ba2	0.39523035
122	0x3f1d507c	0.61450934
123	0x3cf4727a	0.029839743
124	0x3f0e8126	0.55665815
125	0xbee99d34	-0.4562775
126	0x3e5b51a0	0.21417856
127	0x3e99d8ad	0.30048123

shared.2.weight f4 [64, 128]
0	0xbd9d6ff5	-0.0768737
1	0x3d678287	0.056520965
2	0x3d80e6c7	0.06294017
3	0xbd90fd27	-0.07079535
4	0x3c1ff28e	0.009762419
5	0xbd4fdb6e	-0.050746374
6	0x3d8bac07	0.06819921
7	0x3d2bb62e	0.041921787
8	0x3cf52c6f	0.029928414
9	0xbdaf3a38	-0.08556026
10	0xbd32135c	-0.043475494
11	0xbcc2ed80	-0.02379489
12	0xbdac8a3e	-0.08424805
13	0xbd53951c	-0.051655874
14	0x3c0e7699	0.008695268
15	0xbdadafdd	-0.08480809
16	0x3c673882	0.014112594
17	0xbc794efb	-0.015216584
18	0xbca14411	-0.019685777
19	0xbcfe4a77	-0.031041367
20	0xbd7e3fc6	-0.062072538
21	0xbdb3e017	-0.08782976
22	0xbd8a7266	-0.06760101
23	0x3d6bbbcd	0.057552148
24	0xbc40ed04	-0.011775259
25	0x3d9d0bb5	0.076682486
26	0xba1387bd	-0.00056278316
27	0xbca266d8	-0.01982443
28	0x3d591cf2	0.05300612
29	0xbdbdab2e	-0.092611656
30	0xbd836a82	-0.06416799
31	0x3d13f405	0.036121387
32	0xbd17faf7	-0.037104573
33	0x3d8487eb	0.06471237
34	0xbc8f2e64	-0.017478175
35	0x3d4884a2	0.048954614
36	0x3b8caa08	0.0042927302
37	0xbba58f6a	-0.0050524967
38	0xbd98e522	-0.074655786
39	0xbd23a32e	-0.039950542
40	0xbba2e923	-0.0049716397
41	0x3cfdc3c9	0.030977147
42	0x3c4396a7	0.011937774
43	0xbcea43cc	-0.028596781
44	0xbc65273b	-0.013986404
45	0x3d87b725	0.06626729
46	0x3d410a88	0.047129184
47	0x3cf71193	0.030159747
48	0xbd8d274e	-0.068922624
49	0xbd202ec4	-0.0391071
50	0x3d40a06a	0.047027983
51	0x3da2f306	0.07956509
52	0xbd51ae7a	-0.051191784
53	0x3cc89bf8	0.024488434
54	0xbcd450e1	-0.025917472
55	0x3d3f234b	0.046664517
56	0xbcb9cef4	-0.02268169
57	0xbda5ad11	-0.080896504
58	0xbdc671ce	-0.09689675
59	0xbc0bd1b8	-0.008533888
60	0x3caab006	0.020835888
61	0xbd7bf0d0	-0.061508954
62	0x3d765540	0.060139894
63	0x3d16566c	0.036703512
64	0x3d33d985	0.043908615
65	0x3d004b0f	0.03132158
66	0xbdc1da87	-0.09465509
67	0xbcaf836e	-0.021424975
68	0x3d15875c	0.036506042
69	0x3d0d0abb	0.03443406
70	0xbdb7f20f	-0.08981716
71	0xbd73ad5f	-0.05949151
72	0x3d83f135	0.06442491
73	0xbd95df36	-0.07317965
74	0x3d7cfff5	0.061767537
75	0xbcb660f6	-0.022263031
76	0xbb3f78d3	-0.0029216304
77	0x3d3093b6	0.043109618
78	0x3cc2ec5f	0.023794351
79	0xbd6814e9	-0.056660566
80	0x3cebda36	0.028790575
81	0xbdaeadf6	-0.08529274
82	0xbd5d31a2	-0.05400241
83	0xbccc39ad	-0.024929846
84	0xbcdde5d5	-0.027087132
85	0x3d72319b	0.05912934
86	0xbd6c14da	-0.057637073
87	0x3d84a944	0.06477597
88	0x3d02263e	0.03177475
89	0x3c6bf542	0.014401736
90	0x3d6c6fee	0.057723932
91	0xbd8edffe	-0.06976317
92	0xbdaf3ca7	-0.085564904
93	0xbc381188	-0.0112346485
94	0x3cee0482	0.029054884
95	0x3cfeb651	0.031092795
96	0xbc26dc92	-0.010184424
97	0x3d99de52	0.07513107
98	0x3d00a070	0.031403005
99	0x3cebcf59	0.028785395
100	0xbd44c9ae	-0.0480439
101	0x3c4aa7d5	0.012369116
102	0xbd1ce59c	-0.03830491
103	0xbda5669b	-0.08076211
104	0xbd8904b2	-0.06690349
105	0xbd5a9447	-0.053364065
106	0xbc5a5b39	-0.013327413
107	0xbd3e29dd	-0.046426643
108	0x3da64dc7	0.081203036
109	0x3cde4c6a	0.027136046
110	0xbda9b497	-0.08286398
111	0xbc2cc743	-0.010545555
112	0x3d88d5cb	0.06681403
113	0xbc0ff6db	-0.008786882
114	0x3c6b070d	0.014344943
115	0x3cc5ad8e	0.024130609
116	0xbd0cda30	-0.034387767
117	0xbd88765e	-0.06663202
118	0xbd25d130	-0.0404827
119	0xbce7abf3	-0.028280234
120	0x3d648570	0.05579132
121	0xbd932564	-0.07184866
122	0x3b22d2c6	0.002484487
123	0xbd0a651f	-0.033787843
124	0xbc99e94d	-0.018788004
125	0xbc5638fa	-0.013075108
126	0xbd0c6f9e	-0.034286134
127	0x3c78aef9	0.0151784355
128	0x3e221d29	0.15831436
129	0xbdb32f7f	-0.087492935
130	0x3e8de496	0.2771346
131	0x3e343440	0.17598057
132	0x3c3215a6	0.010869419
133	0x3d05a55d	0.032628406
134	0x3d72f79e	0.059318177
135	0x3db6e043	0.08929493
136	0xbbeb9294	-0.0071891043
137	0xbdc47ccc	-0.095941156
138	0x3c98ad1b	0.01863723
139	0x3e3264aa	0.17421213
140	0xbbd8a287	-0.0066111716
141	0xbd19d341	-0.037554983
142	0xba885528	-0.0010401355
143	0x3dbdfdbd	0.09276912
144	0x3dc33bde	0.09532903
145	0x3cc37344	0.023858674
146	0x3d17a38a	0.037021197
147	0x3d222a10	0.039590895
148	0x3dc4acc5	0.09603266
149	0x3d61e86b	0.05515329
150	0xbd4c0a02	-0.04981423
151	0xbd488f66	-0.04896488
152	0xbd9ce1c4	-0.07660249
153	0x3de1a47f	0.11017703
154	0xbd615b8a	-0.05501894
155	0x3dd99b62	0.1062534
156	0x3b659cac	0.003503601
157	0x37fac87f	2.9895686e-05
158	0x3d8437bb	0.06455942
159	0x3c12fe33	0.008971739
160	0xbcc81efc	-0.024428837
161	0x3b5f9693	0.003411685
162	0xbdcab7fc	-0.098983735
163	0xbdf1caec	-0.118062824
164	0x3c5bd0fd	0.013416526
165	0x3d802dd2	0.062587395
166	0xbd0f5ef2	-0.035002656
167	0x3e01a70e	0.12661383
168	0x3c2fef2a	0.0107381735
169	0x3d28f04e	0.041244797
170	0x3d5d75f7	0.05406758
171	0x3dc429c6	0.0957828
172	0x3dc33a87	0.095326476
173	0x3c2aa785	0.010415916
174	0x3d56d805	0.052452106
175	0x3d9e6311	0.07733739
176	0x3c7fc8e0	0.015611857
177	0xbae2585a	-0.0017268762
178	0x3e009576	0.12557015
179	0x3db5422d	0.08850513
180	0xbdda0185	-0.10644821
181	0xbdb16829	-0.08662445
182	0xbd7b6a56	-0.061380707
183	0xbdbca461	-0.0921104
184	0x3d26f555	0.04076131
185	0xbe002c0b	-0.12516801
186	0xbd87fc38	-0.06639904
187	0x3c442168	0.011970855
188	0x3caa181c	0.02076345
189	0x3df4a3a8	0.119452775
190	0xbbdc49e7	-0.006722677
191	0xbd0b2b2a	-0.03397671
192	0x3d473e9a	0.048643686
193	0x3c88a229	0.016678886
194	0x3cd67c98	0.026182458
195	0x3d85158e	0.06498252
196	0x3d5fc5bb	0.05463193
197	0xbdc280d3	-0.094972275
198	0x3d2eb37f	0.04265165
199	0xbd55486b	-0.052071016
200	0xbcc3b7c9	-0.023891347
201	0x3d954f98	0.07290572
202	0x3bd837d7	0.0065984535
203	0x3cf90263	0.030396646
204	0x3d9be5a5	0.076121606
205	0xbd21d300	-0.039507866
206	0x3c916c8a	0.01775195
207	0xbcf1e972	-0.02953026
208	0xbd31f213	-0.04344375
209	0x3d9eafd8	0.07748383
210	0x3d686f09	0.056746516
211	0x3a8ac26f	0.001058651
212	0x3e1ad7d5	0.15121396
213	0x3d05a086	0.03262379
214	0x3d27d38f	0.040973242
215	0x3cbe1c8f	0.023206977
216	0xbd0d57d9	-0.034507606
217	0xbbf2deec	-0.0074118283
218	0x3b8208fa	0.0039683552
219	0xbdea0f93	-0.11428752
220	0xbdcd01ad	-0.10010085
221	0x3d6b77cc	0.057487294
222	0x3c9003ac	0.017579876
223	0xbd223ce9	-0.03960887
224	0x3e2afc30	0.16697764
225	0xbc9d159c	-0.019175343
226	0xbbcf5fde	-0.006328567
227	0x3d104592	0.035222597
228	0xbcb64c16	-0.022253077
229	0xbc3df1c8	-0.01159329
230	0x3d784028	0.06060806
231	0xbc38c241	-0.0112767825
232	0xba8d2246	-0.001076766
233	0x3daaf4b7	0.08347457
234	0x3ba091b7	0.004900183
235	0x3c60c9a3	0.013719949
236	0xbd5b20c2	-0.053498037
237	0x3e84b115	0.25916353
238	0x3c07a4cb	0.008279036
239	0x3d2e85f7	0.042608228
240	0x3d1c8024	0.038208142
241	0x3c8dfe03	0.017333036
242	0xbd8d7ecf	-0.069089524
243	0xbd86f9b4	-0.06590596
244	0x3c9e0da0	0.019293606
245	0x3e1595f0	0.14607978
246	0xbdb92801	-0.09040833
247	0xbda61ee5	-0.081113614
248	0x3d80e71d	0.06294081
249	0x3dba94e4	0.0911043
250	0x3c7f96a0	0.015599877
251	0x3dafc6db	0.085828505
252	0x3d9edb9c	0.07756731
253	0x3d8137c6	0.06309466
254	0xbcd5455b	-0.026034048
255	0xbcad25bf	-0.021136163

shared.2.bias f4 [64]
0	0xbd0c384b	-0.034233373
1	0x3eec7b02	0.46187598
2	0x3f3fe1e1	0.7495404
3	0x3ef2f047	0.47448942
4	0xbd0eb1f4	-0.034837678
5	0x3f2e6806	0.6812748
6	0x3ebf5b97	0.37374565
7	0x3eeaf9a0	0.45893574
8	0x3ee67abf	0.45015523
9	0x3f066330	0.524951
10	0x3da541cf	0.080691926
11	0x3f2f718b	0.6853263
12	0x3f01bf3a	0.50682414
13	0xbd8fed2e	-0.0702766
14	0x3d0f20a6	0.034943245
15	0xb8d63098	-0.000102133665
16	0x3f1363e1	0.5757428
17	0x3ed460a6	0.41479987
18	0x3f1f3050	0.62183094
19	0x3f0045f1	0.5010672
20	0xbe1436c6	-0.1447402
21	0x3ec3ec15	0.38266054
22	0x3d026a59	0.031839702
23	0x3cf0e19c	0.029404454
24	0x3ee97a86	0.4560129
25	0x3f296081	0.6616288
26	0x3bb430bd	0.005498974
27	0x3efb9ba0	0.4914217
28	0xbd8e6fea	-0.0695494
29	0x3cba75a9	0.022761183
30	0x3f0f48b2	0.559703
31	0x3d37b644	0.044851556
32	0x3ebb7ef0	0.36620283
33	0x3f1015b0	0.5628309
34	0xbd8baea5	-0.0682042
35	0x3f17b918	0.59266806
36	0x3d31feeb	0.043456
37	0x3ec89fd0	0.39184427
38	0x3f0bd66e	0.5462407
39	0x3f1a536d	0.6028355
40	0xbcd8cb61	-0.026464166
41	0x3f1d5ed0	0.614728
42	0x3ee225fd	0.44169608
43	0x3edd2582	0.4319268
44	0xbe8698ae	-0.2628836
45	0x3f11ce22	0.5695516
46	0xbdb61c99	-0.08892173
47	0xbd381b0a	-0.04494766
48	0x3e461707	0.19344722
49	0x3efc1b04	0.4923936
50	0x3f0f72c0	0.5603447
51	0x3e842243	0.2580739
52	0xbc856c14	-0.016286887
53	0x3f1039e1	0.56338316
54	0x3ec0aff2	0.37634236
55	0x3f06655a	0.524984
56	0x3edf19ed	0.43574467
57	0xbdf0362a	-0.11729081
58	0x3f06d817	0.52673477
59	0xbeb53e52	-0.3539911
60	0x3e821f37	0.2541444
61	0xbd030f55	-0.031997044
62	0x3eec854a	0.4619544
63	0xbd7f6e6f	-0.062361177

cls_head.weight f4 [1, 64]
0	0x3da5b1dc	0.080905646
1	0xbd8400fa	-0.06445499
2	0x3d874c40	0.066063404
3	0x3d9a5fa5	0.07537774
4	0xbd320dea	-0.0434703
5	0x3d69f234	0.05711575
6	0xbd67e7ed	-0.056617666
7	0x3db23602	0.087017074
8	0xbadb9eae	-0.0016755664
9	0x3d7fd01a	0.06245432
10	0x3db82dc3	0.08993103
11	0x3d7047fc	0.0586624
12	0x3ce585cf	0.028017906
13	0x3bd66a9c	0.0065434705
14	0xbdd89939	-0.105761
15	0xbc03f2a5	-0.008053456
16	0x3d23f6c8	0.04003027
17	0x3de4c9b5	0.11171285
18	0x3c60b7c5	0.013715689
19	0xbd8f2b7d	-0.069907166
20	0x3d6b3c24	0.0574304
21	0xbd0e4532	-0.03473396
22	0xbc224cbc	-0.00990599
23	0xbdb3aa3d	-0.08772705
24	0xbc377ca9	-0.011199155
25	0xbbe96954	-0.007123152
26	0x3d8e264a	0.06940897
27	0xbd2999f8	-0.0414066
28	0xbdbd9171	-0.09256256
29	0xbc88ea49	-0.016713278
30	0x3dbc5aff	0.09197044
31	0x3d4b69ae	0.04966133
32	0x3d41db1d	0.047328103
33	0xbdd3d77f	-0.10343837
34	0xbc3ae8a8	-0.011408009
35	0xbd0c0955	-0.034188587
36	0x3c651551	0.013982133
37	0x3d137c66	0.036007307
38	0x3db85f6f	0.090025775
39	0x3d1324ea	0.035923876
40	0x3d97b4e2	0.074075475
41	0xbd0d0cd8	-0.034436077
42	0xbbbc67f4	-0.005749697
43	0xbdd3e8f9	-0.103471704
44	0xbcff6677	-0.031176789
45	0xbdcd8d78	-0.10036749
46	0x3da2d8ff	0.07951545
47	0x3d531131	0.051530067
48	0xbdb778cc	-0.08958587
49	0x3da56e37	0.080776624
50	0xbdd12e4b	-0.10213908
51	0x3c586535	0.013207723
52	0xbdf43ec3	-0.11926033
53	0x3d82b396	0.063819095
54	0xbd6b1892	-0.05739648
55	0xbda589ea	-0.08082946
56	0x3d3b9a9f	0.045801755
57	0xbd5d6600	-0.054052353
58	0x3d65f3a2	0.05614055
59	0x3ddbc453	0.10730805
60	0x3daec814	0.085342556
61	0x3ba4cca7	0.0050292793
62	0xbcdf0c95	-0.02722768
63	0xbd83ee54	-0.06441942

reg_head.weight f4 [2, 64]
0	0xbd985092	-0.074372426
1	0x3da40725	0.08009175
2	0x3e12ecfd	0.14348216
3	0xbd6c2e73	-0.057661485
4	0x3e06e559	0.13173427
5	0x3d3266f2	0.043555208
6	0x3e048177	0.12940012
7	0x3e119fba	0.14221087
8	0x3d08ac41	0.0333674
9	0xbda76258	-0.081730545
10	0x3d3fbda2	0.046811707
11	0x3df56283	0.1198168
12	0xbd612b27	-0.054972794
13	0xbd86ad3c	-0.065760106
14	0xbd8be5a3	-0.06830909
15	0x3d0f05e3	0.034917723
16	0x3e52853d	0.20558639
17	0x3d205343	0.039141905
18	0x3e288e78	0.16460598
19	0xbd1738f2	-0.03691954
20	0xbd87065a	-0.06593008
21	0x3e063cd1	0.13109137
22	0xbdb4452c	-0.08802256
23	0xbdc40c5f	-0.09572672
24	0x3e0213cb	0.12702863
25	0x3e4a2682	0.19741252
26	0xbbf80bce	-0.0075697666
27	0x3d5bfad2	0.053705998
28	0xbc475b83	-0.012167814
29	0xbb4e0453	-0.0031435683
30	0x3e1c2668	0.15249026
31	0xbd0332a9	-0.032030735
32	0x3ca4c967	0.020115567
33	0xbca72520	-0.020403445
34	0xbdc967cc	-0.09834251
35	0x3ded5e53	0.115902565
36	0xbdaa46bf	-0.08314275
37	0xbc38ca2c	-0.01127867
38	0x3d7d8f15	0.06190403
39	0x3e35d4d9	0.17756976
40	0x3d4e3e8f	0.05035263
41	0xbd936eef	-0.07198893
42	0x3dc70fe7	0.0971983
43	0xbcfa31c5	-0.03054131
44	0xbd25cc8d	-0.040478278
45	0x3e04b799	0.12960662
46	0x3d5c4d6c	0.053784773
47	0xbd0caec5	-0.03434636
48	0x3da66f7a	0.08126731
49	0xbc99ec6f	-0.018789498
50	0xbd01e1c9	-0.031709466
51	0x3dca4fac	0.098784775
52	0xbcb42a5e	-0.021992858
53	0x3cce2145	0.025162349
54	0x3e10b002	0.14129642
55	0x3e2eacb5	0.1705807
56	0x3d886f37	0.066618375
57	0x3db818d4	0.089891106
58	0x3b4fe42b	0.0031721692
59	0xbdb17e2a	-0.08666642
60	0x3e05c8a5	0.13064821
61	0x3d9c9c1e	0.076469645
62	0x3ddebcd6	0.10875861
63	0xbd7a7731	-0.061148826
64	0x3d860092	0.065430775
65	0x3dfd832c	0.12378535
66	0x3e955599	0.29166868
67	0x3e046282	0.12928203
68	0xbd98c125	-0.074587144
69	0x3e5b02eb	0.21387832
70	0x3bdd4aea	0.006753315
71	0x3e3950c1	0.18097211
72	0x3da5961c	0.08085272
73	0x3e2d130b	0.16901796
74	0xbd016902	-0.031594284
75	0x3e599ff3	0.21252422
76	0x3df0efe4	0.117645055
77	0xbda68690	-0.081311345
78	0xbcbe1614	-0.023203887
79	0xbdac7005	-0.084198035
80	0x3e2d24ee	0.16908619
81	0x3daf4e38	0.08559841
82	0x3e25e3c0	0.16200161
83	0x3de21fa9	0.11041195
84	0xbd1481d7	-0.036256637
85	0x3dad84cb	0.08472594
86	0x3ca45ca7	0.020063711
87	0xbdc19086	-0.09451394
88	0x3b5353bd	0.0032245957
89	0x3e65e7d7	0.22451721
90	0xbd1430da	-0.0361794
91	0x3e198469	0.14991917
92	0xbd905a6b	-0.07048496
93	0xbd9db52d	-0.07700572
94	0x3e052dfb	0.13005821
95	0xbd27250c	-0.040806815
96	0x3d66d2e3	0.05635346
97	0x3e142fc9	0.14471354
98	0x3cca965b	0.024729898
99	0x3df87a2a	0.12132676
100	0x3d8c931e	0.06863998
101	0x3e8eedd2	0.27915817
102	0x3dbb2b4c	0.091391176
103	0x3d9c69dc	0.076373786
104	0xbdcf926c	-0.1013535
105	0x3e277b88	0.16355717
106	0x3dcea00a	0.10089119
107	0x3e0dd1ad	0.13849516
108	0xbdb9087f	-0.090348236
109	0x3e11f018	0.14251745
110	0xbd5f0abc	-0.054453596
111	0xbd65bba5	-0.056087155
112	0xbd26d837	-0.040733542
113	0x3e263865	0.1623245
114	0x3ddc3293	0.10751834
115	0xbd60a337	-0.054843154
116	0xbda7bae7	-0.08189946
117	0x3df2506a	0.11831744
118	0x3c8edfa6	0.017440628
119	0x3ddd298a	0.107989386
120	0x3db743fc	0.08948514
121	0xbdd9b1b3	-0.106295966
122	0x3dda0e7a	0.106472924
123	0xbd187037	-0.03721639
124	0xbd7c0779	-0.061530564
125	0xbde6e5e8	-0.1127432
126	0x3e03af51	0.12859847
127	0xbe086c61	-0.13322593

reg_head.bias f4 [2]
0	0x3e9fb997	0.3119628
1	0x3f05189a	0.51990664
